tests/artifacts/tuned_llama_with_added_tokens/adapter_model.safetensors (safetensors, 5832 bytes, 4 tensors)

base_model.model.model.layers.0.self_attn.q_proj.lora_A.weight f4 [8, 64]
0	0x3dd33764	0.10313299
1	0xbda50fd4	-0.080596596
2	0x3d4de47b	0.050266724
3	0xbdac6a4e	-0.084187135
4	0x3d83bf4a	0.0643297
5	0x3d2fe6ec	0.042944834
6	0xbbca09e8	-0.0061657317
7	0xbdd8667a	-0.10566421
8	0xbde0f488	-0.10984141
9	0x3dfcd86f	0.12345969
10	0x3d5715e8	0.052511126
11	0x3db8686f	0.09004294
12	0xbdbb3e12	-0.09142698
13	0x3dcb2501	0.09919167
14	0x3d71e06c	0.059051916
15	0x3d39addf	0.045331832
16	0xbdee1e88	-0.11626917
17	0x3cc634c8	0.02419509
18	0xbc9d8293	-0.019227302
19	0x3dcfe30c	0.10150728
20	0xbdae4f3c	-0.085112065
21	0xbdb04e48	-0.08608681
22	0xbd9fa7a3	-0.07795646
23	0x3d0e31e9	0.034715567
24	0x3dcb9491	0.09940446
25	0xbdb760e5	-0.08954028
26	0xbdf41939	-0.11918873
27	0x3dee4aea	0.116353825
28	0xbdf70410	-0.12061322
29	0xbd836dc8	-0.064174235
30	0xbcbdb4ca	-0.023157496
31	0x3c05b814	0.008161563
32	0x3c8e6ead	0.017386759
33	0xbcf26f85	-0.029594192
34	0x3d93d482	0.07218267
35	0x3ac8138a	0.0015264612
36	0x3db46d81	0.08809949
37	0xbd8a95e9	-0.06766874
38	0xbbc062a4	-0.005871134
39	0x3d150f75	0.036391694
40	0x3c0d80da	0.008636678
41	0x3d5edd56	0.0544103
42	0xbd2e4d72	-0.042554326
43	0x3d67c76f	0.05658668
44	0x3c67e6be	0.014154134
45	0x3db65d50	0.08904517
46	0xbdffdad8	-0.12492913
47	0xbd946a1f	-0.072468035
48	0xbcfd2ea1	-0.030906023
49	0xbdc263c3	-0.09491684
50	0xbddc5a05	-0.10759357
51	0x3da947d7	0.082656555
52	0xbd6f6d06	-0.058453582
53	0xbdff6d1c	-0.12471983
54	0xbde9d5eb	-0.11417755
55	0xbd11a4a6	-0.03555741
56	0x3dbbfeaa	0.09179433
57	0xbde963ff	-0.11396026
58	0x3daad101	0.083406456
59	0x3dd3a616	0.10334413
60	0xbd2eb276	-0.042650662
61	0x3d8ee44a	0.069771364
62	0x3dd938c4	0.1060653
63	0x3d845af0	0.064626575
64	0xbd287e46	-0.04113605
65	0xbb5479c5	-0.0032421213
66	0x3d9d88cb	0.07692107
67	0xbddc68dd	-0.107621886
68	0xbdab7598	-0.083720386
69	0x3dc3cd57	0.0956065
70	0x3d49c589	0.04926065
71	0x3dc17fd0	0.094482064
72	0x3b2bd091	0.0026216845
73	0x3d0c8ae4	0.034312144
74	0x3d7f1fb0	0.06228608
75	0x3de98b48	0.11403519
76	0xbd2d7479	-0.042347405
77	0xbca1dcfd	-0.019758696
78	0xbdf87bb8	-0.121329725
79	0x3c16ad06	0.009196525
80	0x3cc06e59	0.023490118
81	0xbcc70e61	-0.024298849
82	0x3d8870cb	0.066621386
83	0xbb2f128e	-0.002671394
84	0xbc9d816a	-0.019226748
85	0x3b5bec33	0.0033557534
86	0xbdf3c612	-0.11903013
87	0xbd922974	-0.07136813
88	0xbb69974e	-0.0035643163
89	0xbddc5272	-0.10757913
90	0xbdcc9f36	-0.099913046
91	0x3c32f49f	0.01092258
92	0x3d8c64bc	0.06855151
93	0x3d93eca6	0.072228715
94	0xbddd10fc	-0.10794255
95	0xbd814443	-0.06311848
96	0x3de04685	0.109509505
97	0x3d4e5f0b	0.05038361
98	0x3dcb1946	0.0991693
99	0x3d1453bf	0.03621268
100	0xbd919b5c	-0.071097106
101	0x3aa55feb	0.0012617087
102	0x3d96ae0b	0.07357415
103	0xbdfdbbcf	-0.12389337
104	0x3d8f860a	0.07007988
105	0xbce90f1c	-0.028449588
106	0xbdc8bc55	-0.098015465
107	0x3c1bac5a	0.009501541
108	0x3d87deda	0.066343024
109	0x3c98318d	0.018578315
110	0x3c0f6176	0.008751264
111	0xbcb8ce33	-0.022559261
112	0x3dd25cb4	0.10271588
113	0x3b89f2e5	0.0042098635
114	0xbccbf517	-0.024897141
115	0xbd806e7e	-0.06271075
116	0xbd4dc138	-0.050233096
117	0xbd82f5a1	-0.06394506
118	0xbc1f9f98	-0.00974264
119	0x3c5b6f14	0.013393182
120	0x3d070509	0.032963786
121	0xbd4dbf4e	-0.05023127
122	0xbda92907	-0.082597785
123	0xbd556c3b	-0.05210517
124	0x3ddc317d	0.10751627
125	0xbd331ce6	-0.04372873
126	0xbd985066	-0.0743721
127	0xbddf32c5	-0.108983554
128	0xbddfc2fd	-0.10925863
129	0xbc57f057	-0.01317986
130	0xbd866af7	-0.06563371
131	0x3d53e7b8	0.051734656
132	0xbdc2d70d	-0.09513674
133	0x3d4edca8	0.050503403
134	0xbc0df1a1	-0.008663566
135	0xbdc8ac56	-0.097984955
136	0x3dbc89bb	0.092059575
137	0xbe007f50	-0.12548566
138	0xbdf290fc	-0.1184406
139	0xbd06d712	-0.03291995
140	0xbd675338	-0.056475848
141	0x3bde3330	0.0067810044
142	0xbd0bbd88	-0.034116298
143	0x3da716d1	0.08158649
144	0x3db92d8f	0.09041893
145	0x3d8e61e4	0.06952265
146	0xbda043cd	-0.07825432
147	0x3b26f86e	0.0025477665
148	0x3d5fb805	0.054618854
149	0xba465319	-0.0007565483
150	0xbd9c3c47	-0.076286845
151	0x3c9c2cbd	0.019064302
152	0x3ca68e1c	0.020331435
153	0x3dc37b1e	0.09544967
154	0x3c6598ff	0.014013528
155	0x3da2a8b4	0.07942334
156	0xbdeb6be6	-0.11495189
157	0x3dc46830	0.09590185
158	0x3d3a4ae9	0.045481596
159	0xbe0118dd	-0.12607141
160	0x3de11118	0.109895885
161	0x3d95f263	0.07321622
162	0xbdad9caf	-0.08477151
163	0xbcf2a832	-0.029621217
164	0xbc4e2ca4	-0.012583885
165	0xbd358421	-0.04431546
166	0xbd8b7b0b	-0.06810578
167	0x3d9e9da6	0.07744913
168	0xbde9e5c2	-0.11420776
169	0xbda11a45	-0.07866339
170	0x3c7d1855	0.015447696
171	0x3da5de35	0.08099023
172	0x3d8552cd	0.065099336
173	0xbc3102d2	-0.010803895
174	0xbcd6e121	-0.026230397
175	0x3d48a695	0.04898699
176	0xbcae57f9	-0.021282183
177	0xbc468eae	-0.012118978
178	0x3d1c21f0	0.038118303
179	0xbdb4726f	-0.08810889
180	0x3ca82981	0.020527603
181	0x3df07c7b	0.11742493
182	0xbd8965cf	-0.067088716
183	0xbd434bd7	-0.04767975
184	0x3d84e005	0.06488041
185	0xbde26859	-0.11055059
186	0x3ca6eee1	0.020377578
187	0x3c843803	0.01613999
188	0xbd2c2637	-0.042028632
189	0xbdb9a413	-0.09064498
190	0x3dee9cdb	0.116510116
191	0xbd620140	-0.055176973
192	0x3d8b5897	0.068040065
193	0xbdf72bdb	-0.12068912
194	0xbc01c7da	-0.0079211835
195	0xbc49f626	-0.012326753
196	0xbdb1a4e2	-0.08674027
197	0x3d9cf70c	0.07664308
198	0xbdde55a9	-0.10856182
199	0xbdcd6f71	-0.100310214
200	0x3cdfc110	0.027313739
201	0xbd9a4427	-0.0753253
202	0x3dcba667	0.09943848
203	0x3d13e78c	0.036109492
204	0xbd7b3b4d	-0.06133585
205	0xbca0fdbc	-0.01965224
206	0x3bf2d55e	0.0074106893
207	0x3bb42fb9	0.005498853
208	0x3d3f6240	0.046724558
209	0xbdc972fa	-0.09836383
210	0xbde77427	-0.11301451
211	0x3d8ee2d5	0.069768585
212	0x3d0e5ba8	0.03475538
213	0x3d6463c5	0.05575921
214	0x3cfe65bc	0.03105437
215	0x3d4f2643	0.0505736
216	0xbde76c78	-0.11299986
217	0x3c724052	0.014785843
218	0xbc0ca4e5	-0.008584236
219	0xbde2a04b	-0.1106573
220	0xbd5ab866	-0.053398512
221	0xbbc1bd19	-0.005912435
222	0xbc963995	-0.018338004
223	0x3dc281d9	0.09497423
224	0x3dc809ed	0.09767518
225	0xbb14dbc1	-0.0022713991
226	0xbdd230e9	-0.10263235
227	0x3d260ebb	0.04054139
228	0xbd106e53	-0.035261463
229	0x3dd2a247	0.10284858
230	0x3d7cea20	0.061746716
231	0xbb6d9aa4	-0.0036255503
232	0x3ddb6d46	0.10714202
233	0xbdd8efc6	-0.10592608
234	0x3daaeeb2	0.08346309
235	0x3b66d5d9	0.0035222678
236	0xbdfea93f	-0.12434625
237	0xbb00f94f	-0.001967985
238	0xbda7f3dc	-0.08200809
239	0xbd54d85c	-0.05196415
240	0x3de20ff2	0.110381976
241	0xbd9f5285	-0.07779411
242	0xbd54a486	-0.051914714
243	0x3c9c6ced	0.019094909
244	0x3cb0fac7	0.021603955
245	0xbb6a2915	-0.0035730053
246	0x3d1abc57	0.03777727
247	0xbcc3363a	-0.023829568
248	0x3da193e4	0.07889536
249	0xbdfe2c09	-0.12410743
250	0xbcc92894	-0.024555482
251	0x3d4f885b	0.050667148
252	0x3d428331	0.047488395
253	0x3db8d34d	0.090246774
254	0xbd5679d7	-0.05236229
255	0xbdc96bb9	-0.098349996

base_model.model.model.layers.0.self_attn.q_proj.lora_B.weight f4 [64, 8]
0	0xba840775	-0.0010073023
1	0x3a78878d	0.0009480648
2	0x39d9730b	0.0004147518
3	0x39dc1975	0.00041980637
4	0x3a39eb05	0.00070922106
5	0xba1d36ed	-0.0005997259
6	0xba4cfe05	-0.0007819834
7	0x3a72a0aa	0.0009255508
8	0xba9d4259	-0.0011997923
9	0xb9c75827	-0.00038021916
10	0x3a80b261	0.0009818786
11	0xb9dd7d84	-0.0004224592
12	0x3abe9838	0.0014541214
13	0xba948c94	-0.00113334
14	0xbabd6e22	-0.0014452378
15	0x3ab0e95a	0.0013497279
16	0xb9e77acf	-0.00044151253
17	0x3a8035d3	0.0009781666
18	0xba288861	-0.00064290134
19	0xba490b36	-0.0007669212
20	0x3a7798fc	0.00094450987
21	0xba35adbd	-0.0006930491
22	0xba97f4a5	-0.0011593295
23	0xbabcdb80	-0.0014408678
24	0xba8507f7	-0.0010149468
25	0x3ac22eee	0.0014815012
26	0xba92325b	-0.0011153923
27	0x395e0330	0.00021172757
28	0x3ad15eb2	0.0015973656
29	0xba52680c	-0.00080263685
30	0xbaa563b8	-0.001261822
31	0xb99d703b	-0.00030028992
32	0xba8a0d18	-0.0010532467
33	0xb8a4adef	-7.852527e-05
34	0x3a31662d	0.00067672395
35	0xba64690b	-0.00087131624
36	0x3a40e8b3	0.00073588936
37	0x39cc1726	0.0003892716
38	0xba37c9ae	-0.00070109486
39	0x3a9a11bd	0.0011754554
40	0x3a721835	0.00092351745
41	0x3a079701	0.00051723426
42	0xba7a2017	-0.0009541525
43	0x3aa558b1	0.0012614933
44	0x39e1505f	0.00042975225
45	0xb9cdaf1c	-0.00039231114
46	0xb97b076d	-0.00023939992
47	0xba913b5c	-0.0011080313
48	0xb9f3314b	-0.00046385298
49	0x3a28b275	0.00064352836
50	0x3ad813cb	0.0016485391
51	0xba061f35	-0.00051163445
52	0x3a63123d	0.00086620805
53	0x3a4b2615	0.000774951
54	0xba4bb48e	-0.000777074
55	0x3a8658e2	0.0010249878
56	0xbacd0a7d	-0.0015643385
57	0x3a762e72	0.0009391076
58	0x3ad0789e	0.0015905087
59	0xbad36d55	-0.0016130606
60	0x3ac1c9db	0.0014784889
61	0xb9822229	-0.00024820984
62	0xbab294be	-0.0013624651
63	0x3a806407	0.0009795435
64	0xb9805ab2	-0.00024481636
65	0x3a4e33ca	0.00078659935
66	0xb8253e72	-3.9397222e-05
67	0x3720d6e0	9.586773e-06
68	0x3a03aea6	0.0005023278
69	0x3833464a	4.2742387e-05
70	0x39e0d1c7	0.00042880906
71	0xbac24875	-0.0014822619
72	0xba344bd4	-0.00068777543
73	0x39c0aadc	0.00036748394
74	0xbaaec24d	-0.0013333053
75	0xba71f8e0	-0.00092305057
76	0xb9eff762	-0.00045769947
77	0xba120a8a	-0.00055710285
78	0x38b357e8	8.551759e-05
79	0xba20b746	-0.00061308255
80	0x3a56d203	0.00081947463
81	0xb9ad8cf9	-0.00033102164
82	0xba93a8a8	-0.0011265473
83	0x3a6ad350	0.00089578796
84	0xba3dac03	-0.00072354096
85	0xba9e315b	-0.0012069152
86	0x38ac38ab	8.212154e-05
87	0xbac25e06	-0.0014829047
88	0x3aa72cea	0.0012754474
89	0xbad4b87a	-0.0016229295
90	0x39de77fd	0.00042432538
91	0x3aaf4bf9	0.0013374082
92	0xbaa5ad54	-0.0012640157
93	0x3a39abc4	0.0007082785
94	0x3a28b615	0.0006435824
95	0x3a89114d	0.0010457427
96	0x3a4f4afe	0.0007907598
97	0xba8ad6c0	-0.0010592565
98	0xb9f91224	-0.00047506497
99	0x3aa08a18	0.0012248186
100	0xba737846	-0.00092876365
101	0xb88feea4	-6.863222e-05
102	0x3a76dfe6	0.0009417519
103	0x3ab418e4	0.0013740328
104	0xb92954c7	-0.00016148678
105	0xbab3d554	-0.0013720193
106	0xba5d65e2	-0.00084456627
107	0x3a8b7ed5	0.0010642657
108	0x39c3a044	0.00037312706
109	0xba5ccf78	-0.0008423249
110	0x39846fec	0.0002526039
111	0x3a715f5d	0.00092076306
112	0xbabbb100	-0.0014319718
113	0xb894403a	-7.069153e-05
114	0x3aa2ab0f	0.0012410599
115	0xb97a71aa	-0.00023884201
116	0xba127ebd	-0.00055883435
117	0x3abb1ac4	0.0014274945
118	0x3a1e8346	0.0006046783
119	0x3aa3cf9e	0.0012497788
120	0xba9056bb	-0.0011012176
121	0xb9b16a20	-0.0003383914
122	0x3a2a5f83	0.00064992177
123	0xba8692a6	-0.0010267093
124	0xb9f61a06	-0.00046940165
125	0x3a9e1465	0.0012060521
126	0x3a1af13b	0.000591058
127	0x3adba293	0.0016756825
128	0xba15cb36	-0.000571418
129	0x3a8e2c18	0.0010846881
130	0xb9a2e9d4	-0.00031073263
131	0xba5273bb	-0.00080281094
132	0x3a483bb6	0.0007638292
133	0x38436ba6	4.659188e-05
134	0xb93b5c07	-0.00017867993
135	0xba6078d0	-0.00085629243
136	0xb9c8edbf	-0.00038324107
137	0x3a9b27f4	0.0011837468
138	0xbac6ce20	-0.0015167631
139	0x3a81c455	0.000990043
140	0x3a9b2fdd	0.0011839826
141	0xba96c290	-0.0011502076
142	0x37447cd4	1.1711574e-05
143	0xbab547ef	-0.0013830642
144	0x3960d0ab	0.0002144004
145	0xba71cca8	-0.00092239166
146	0x3a116c2e	0.0005547431
147	0x3a4caa98	0.0007807403
148	0xba987a27	-0.0011633084
149	0x390ffc69	0.00013731573
150	0x3a38f8c1	0.000705611
151	0x3ac66694	0.0015136772
152	0xb92b336f	-0.00016326991
153	0xb8c40b96	-9.348166e-05
154	0x3a478eec	0.00076125446
155	0x3a2cd787	0.00065933954
156	0x3a437351	0.0007455843
157	0x39bbf64c	0.00035850925
158	0xb9ef9f94	-0.00045704527
159	0x3aac9800	0.0013167858
160	0xb83839c1	-4.3922806e-05
161	0xb9c14698	-0.00036864425
162	0x3a7b7c53	0.0009593416
163	0xb9335c90	-0.00017105252
164	0x391491cd	0.00014168695
165	0xba144188	-0.0005655517
166	0xba1ab90b	-0.00059022073
167	0xba832df8	-0.0010008207
168	0x3a56235d	0.00081687217
169	0xba96aac5	-0.0011494985
170	0xbab61045	-0.0013890347
171	0x3ab80766	0.0014040291
172	0xbabea757	-0.0014545721
173	0xbaab0a20	-0.0013049282
174	0x3a798d0c	0.0009519614
175	0x3a01c9c6	0.0004951026
176	0xba6601b7	-0.0008774059
177	0x3a2c8b18	0.0006582006
178	0xba2af86c	-0.0006522003
179	0x39b622a0	0.00034739543
180	0x3ab67b65	0.0013922272
181	0xba55b963	-0.000815293
182	0xb9d02aa0	-0.0003970461
183	0xb9b3611d	-0.00034213896
184	0xba8d9892	-0.0010802916
185	0x3ac5b0c8	0.0015082592
186	0x3aa0d4db	0.0012270467
187	0xba941b00	-0.001129955
188	0x3ab34fdd	0.0013680417
189	0x3aab5cee	0.001307396
190	0xba308aa7	-0.0006734528
191	0x3a7a1c51	0.00095409626
192	0x38d85b79	0.00010316721
193	0xba432861	-0.00074446766
194	0x3a99f55f	0.00117461
195	0xb9e46f44	-0.00043570448
196	0x39d3944a	0.0004035554
197	0xb9f056ed	-0.00045841132
198	0xb9465d9b	-0.00018917622
199	0xb88f31db	-6.828058e-05
200	0x3a7aa936	0.00095619576
201	0xba1e2b8b	-0.000603371
202	0xb98b2fde	-0.0002654781
203	0x3abbade7	0.0014318795
204	0xba0bfd8b	-0.000534021
205	0x3ab81dff	0.0014047025
206	0xb94fc126	-0.00019813012
207	0x39e433d7	0.00043526173
208	0x3a97a042	0.0011568146
209	0xba87b6c5	-0.0010354152
210	0x3ab9d77d	0.00141786
211	0xb9eefa72	-0.00045581494
212	0xba3de1d6	-0.000724343
213	0x3a3a25de	0.00071009796
214	0xb9767bfa	-0.00023506573
215	0x3aa2a43e	0.0012408567
216	0x3ac2afb8	0.0014853394
217	0xba9a2c81	-0.0011762531
218	0xbab2e922	-0.0013649801
219	0x3acf778b	0.0015828473
220	0xba45b6ef	-0.0007542213
221	0xba88b9da	-0.0010431365
222	0x3a966578	0.0011474332
223	0xba0e5ef5	-0.000543102
224	0x3a9931c3	0.0011687804
225	0x3921a767	0.00015416519
226	0xb92167cb	-0.00015392822
227	0x3a423494	0.00074083474
228	0xba236653	-0.0006233204
229	0x3a023ead	0.0004968446
230	0x3a9dbc10	0.0012034196
231	0xb9a08418	-0.00030615996
232	0xba59212f	-0.0008282838
233	0xba41e68a	-0.0007396719
234	0x3a8f6a6a	0.0010941748
235	0x3a358b8e	0.00069253973
236	0xb86358cf	-5.4203727e-05
237	0x3970f6db	0.00022980144
238	0x3a012758	0.0004926822
239	0x3a84da82	0.0010135921
240	0xba89f4fe	-0.0010525284
241	0x3a73efeb	0.0009305465
242	0x3a333ea0	0.000683764
243	0xba92321a	-0.0011153847
244	0x3a4e02f9	0.00078587193
245	0xb8c74619	-9.502116e-05
246	0xba0fdfc0	-0.00054883584
247	0xba5cab94	-0.0008417901
248	0x3ab6cd9c	0.0013946774
249	0x3a2929d5	0.0006453072
250	0xbacb0fb7	-0.0015492354
251	0x3a95597e	0.0011394469
252	0xbaaa10f2	-0.0012975021
253	0x3847bb57	4.761977e-05
254	0x3ac03774	0.0014664964
255	0xb980cf36	-0.00024568447

base_model.model.lm_head.weight bf16 [5, 64]
0	0xbd81	-0.06298828
1	0x3e00	0.125
2	0x3d80	0.0625
3	0x3dbe	0.09277344
4	0x3d80	0.0625
5	0xbd80	-0.0625
6	0xbddf	-0.10888672
7	0x3d80	0.0625
8	0x3e00	0.125
9	0x3e00	0.125
10	0xbd80	-0.0625
11	0x3d80	0.0625
12	0xbdca	-0.09863281
13	0x3dd6	0.10449219
14	0x3d80	0.0625
15	0xbe00	-0.125
16	0x3d80	0.0625
17	0xbe00	-0.125
18	0xbe00	-0.125
19	0xbdd9	-0.10595703
20	0x3e00	0.125
21	0x3d70	0.05859375
22	0x3d80	0.0625
23	0x3dc5	0.096191406
24	0x3e00	0.125
25	0xbe00	-0.125
26	0xbdcf	-0.10107422
27	0x3e00	0.125
28	0xbe00	-0.125
29	0xbda5	-0.080566406
30	0xbe00	-0.125
31	0x3d80	0.0625
32	0x3db2	0.08691406
33	0x3d80	0.0625
34	0xbd66	-0.056152344
35	0x3e00	0.125
36	0xbd25	-0.040283203
37	0x3e00	0.125
38	0x3db5	0.088378906
39	0x3f00	0.5
40	0x3d9b	0.075683594
41	0xbddc	-0.107421875
42	0xbd88	-0.06640625
43	0xbe80	-0.25
44	0xbd16	-0.036621094
45	0x3dad	0.084472656
46	0x3d80	0.0625
47	0x3d58	0.052734375
48	0xbd7b	-0.061279297
49	0xbdbc	-0.091796875
50	0xbd41	-0.04711914
51	0xbdb4	-0.087890625
52	0x3df6	0.12011719
53	0xbdc0	-0.09375
54	0xbd80	-0.0625
55	0xbd76	-0.060058594
56	0x3d57	0.052490234
57	0xbda0	-0.078125
58	0xbdc3	-0.095214844
59	0xbd98	-0.07421875
60	0xbd89	-0.06689453
61	0xbd80	-0.0625
62	0x3d80	0.0625
63	0x3d94	0.072265625
64	0x3e11	0.14160156
65	0x3e47	0.19433594
66	0xbe15	-0.14550781
67	0x3e82	0.25390625
68	0xbdc4	-0.095703125
69	0x3e2d	0.16894531
70	0x3e3a	0.18164062
71	0x3e00	0.125
72	0x3e80	0.25
73	0x3e70	0.234375
74	0x3dc9	0.09814453
75	0x3e80	0.25
76	0x3e31	0.17285156
77	0x3e70	0.234375
78	0xbe37	-0.17871094
79	0xbf00	-0.5
80	0x3e00	0.125
81	0xbe7c	-0.24609375
82	0x3e00	0.125
83	0x3e57	0.20996094
84	0xbe48	-0.1953125
85	0xbde1	-0.10986328
86	0xbdc5	-0.096191406
87	0xbe80	-0.25
88	0xbe80	-0.25
89	0x3e2e	0.16992188
90	0x3e00	0.125
91	0xbe51	-0.20410156
92	0x3e23	0.15917969
93	0x3e27	0.16308594
94	0xbe80	-0.25
95	0x3e00	0.125
96	0xbe4c	-0.19921875
97	0xbdf2	-0.11816406
98	0x3e00	0.125
99	0xbe00	-0.125
100	0x3e05	0.12988281
101	0xbe00	-0.125
102	0xbe1b	-0.15136719
103	0xbf00	-0.5
104	0x3e66	0.22460938
105	0x3e1f	0.15527344
106	0xbe4b	-0.19824219
107	0xbe6f	-0.23339844
108	0x3df3	0.118652344
109	0x3e80	0.25
110	0xbe06	-0.13085938
111	0xbd80	-0.0625
112	0x3dc9	0.09814453
113	0xbe6d	-0.23144531
114	0x3e43	0.19042969
115	0xbe80	-0.25
116	0xbe22	-0.15820312
117	0x3e00	0.125
118	0x3e00	0.125
119	0x3e51	0.20410156
120	0xbe00	-0.125
121	0xbe64	-0.22265625
122	0x3e00	0.125
123	0x3e1a	0.15039062
124	0x3e4d	0.20019531
125	0x3e00	0.125
126	0x3e00	0.125
127	0xbe40	-0.1875
128	0x3e01	0.12597656
129	0xbec2	-0.37890625
130	0xbe12	-0.14257812
131	0xbe80	-0.25
132	0xbe04	-0.12890625
133	0x3e28	0.1640625
134	0xbe8b	-0.27148438
135	0xbe80	-0.25
136	0x3e11	0.14160156
137	0x3e80	0.25
138	0x3e3a	0.18164062
139	0x3e3a	0.18164062
140	0x3e80	0.25
141	0xbe80	-0.25
142	0x3e80	0.25
143	0x3e80	0.25
144	0x3e80	0.25
145	0x3e80	0.25
146	0x3e02	0.12695312
147	0xbe80	-0.25
148	0xbe5f	-0.21777344
149	0xbe80	-0.25
150	0xbe00	-0.125
151	0xbe80	-0.25
152	0x3e0f	0.13964844
153	0xbe7c	-0.24609375
154	0x3e11	0.14160156
155	0xbe01	-0.12597656
156	0x3e1e	0.15429688
157	0xbf00	-0.5
158	0x3e80	0.25
159	0xbe4e	-0.20117188
160	0xbe80	-0.25
161	0xbe39	-0.18066406
162	0x3e80	0.25
163	0xbe80	-0.25
164	0x3e2a	0.16601562
165	0x3e80	0.25
166	0xbe86	-0.26171875
167	0x3e3c	0.18359375
168	0xbe08	-0.1328125
169	0x3e0a	0.13476562
170	0x3e03	0.12792969
171	0xbe52	-0.20507812
172	0xbe80	-0.25
173	0xbe80	-0.25
174	0x3e88	0.265625
175	0xbe80	-0.25
176	0x3e00	0.125
177	0x3e80	0.25
178	0x3e09	0.13378906
179	0xbe80	-0.25
180	0xbe80	-0.25
181	0x3e80	0.25
182	0x3e0b	0.13574219
183	0x3e80	0.25
184	0xbe00	-0.125
185	0x3e27	0.16308594
186	0x3e2d	0.16894531
187	0x3e00	0.125
188	0xbe80	-0.25
189	0xbe80	-0.25
190	0xbe80	-0.25
191	0xbe80	-0.25
192	0xbd80	-0.0625
193	0x3e00	0.125
194	0x3d84	0.064453125
195	0x3dca	0.09863281
196	0x3d80	0.0625
197	0xbdac	-0.083984375
198	0xbde5	-0.111816406
199	0x3dcb	0.099121094
200	0x3e00	0.125
201	0x3e00	0.125
202	0xbd9d	-0.076660156
203	0x3d80	0.0625
204	0xbdd0	-0.1015625
205	0x3da1	0.07861328
206	0x3d80	0.0625
207	0xbdd6	-0.10449219
208	0x3d9c	0.076171875
209	0xbe00	-0.125
210	0xbdef	-0.11669922
211	0xbdec	-0.115234375
212	0x3e00	0.125
213	0x3d34	0.043945312
214	0x3d97	0.07373047
215	0x3de3	0.110839844
216	0x3e00	0.125
217	0xbe00	-0.125
218	0xbd71	-0.05883789
219	0x3ded	0.115722656
220	0xbe00	-0.125
221	0xbdb7	-0.08935547
222	0xbe00	-0.125
223	0x3d80	0.0625
224	0x3d80	0.0625
225	0x3da8	0.08203125
226	0xbd38	-0.044921875
227	0x3e00	0.125
228	0xbda3	-0.079589844
229	0x3e00	0.125
230	0x3d80	0.0625
231	0x3f00	0.5
232	0x3d80	0.0625
233	0xbe00	-0.125
234	0xbdb3	-0.087402344
235	0xbe80	-0.25
236	0xbd80	-0.0625
237	0x3daa	0.08300781
238	0x3d80	0.0625
239	0x3d9f	0.07763672
240	0xbd4c	-0.049804688
241	0xbd9e	-0.07714844
242	0xbd00	-0.03125
243	0xbda7	-0.08154297
244	0x3def	0.11669922
245	0xbd8c	-0.068359375
246	0xbdca	-0.09863281
247	0xbd43	-0.047607422
248	0x3d80	0.0625
249	0xbdb6	-0.08886719
250	0xbdb3	-0.087402344
251	0xbd5e	-0.05419922
252	0xbe00	-0.125
253	0xbd8d	-0.068847656
254	0x3cc4	0.023925781
255	0x3d80	0.0625

base_model.model.model.embed_tokens.weight bf16 [5, 64]
0	0x0000	0.0
1	0x0000	0.0
2	0x0000	0.0
3	0x0000	0.0
4	0x0000	0.0
5	0x0000	0.0
6	0x0000	0.0
7	0x0000	0.0
8	0x0000	0.0
9	0x0000	0.0
10	0x0000	0.0
11	0x0000	0.0
12	0x0000	0.0
13	0x0000	0.0
14	0x0000	0.0
15	0x0000	0.0
16	0x0000	0.0
17	0x0000	0.0
18	0x0000	0.0
19	0x0000	0.0
20	0x0000	0.0
21	0x0000	0.0
22	0x0000	0.0
23	0x0000	0.0
24	0x0000	0.0
25	0x0000	0.0
26	0x0000	0.0
27	0x0000	0.0
28	0x0000	0.0
29	0x0000	0.0
30	0x0000	0.0
31	0x0000	0.0
32	0x0000	0.0
33	0x0000	0.0
34	0x0000	0.0
35	0x0000	0.0
36	0x0000	0.0
37	0x0000	0.0
38	0x0000	0.0
39	0x0000	0.0
40	0x0000	0.0
41	0x0000	0.0
42	0x0000	0.0
43	0x0000	0.0
44	0x0000	0.0
45	0x0000	0.0
46	0x0000	0.0
47	0x0000	0.0
48	0x0000	0.0
49	0x0000	0.0
50	0x0000	0.0
51	0x0000	0.0
52	0x0000	0.0
53	0x0000	0.0
54	0x0000	0.0
55	0x0000	0.0
56	0x0000	0.0
57	0x0000	0.0
58	0x0000	0.0
59	0x0000	0.0
60	0x0000	0.0
61	0x0000	0.0
62	0x0000	0.0
63	0x0000	0.0
64	0x3ded	0.115722656
65	0x3c5a	0.013305664
66	0xbdee	-0.11621094
67	0x3dd1	0.10205078
68	0xbd90	-0.0703125
69	0x3df6	0.12011719
70	0x3de8	0.11328125
71	0x3d75	0.059814453
72	0x3de2	0.11035156
73	0x3d96	0.07324219
74	0xbdb4	-0.087890625
75	0x3d7c	0.061523438
76	0xbd40	-0.046875
77	0xbdb1	-0.08642578
78	0xbde4	-0.111328125
79	0x3d0d	0.034423828
80	0x3dae	0.08496094
81	0xbcef	-0.029174805
82	0xbd8e	-0.06933594
83	0xbe00	-0.125
84	0x3d5c	0.053710938
85	0x3d71	0.05883789
86	0xbcba	-0.022705078
87	0x3d4d	0.050048828
88	0xbbeb	-0.007171631
89	0x3ce4	0.027832031
90	0x3de6	0.11230469
91	0xbd41	-0.04711914
92	0x3cf8	0.030273438
93	0xbdee	-0.11621094
94	0x3d47	0.048583984
95	0x3c64	0.013916016
96	0xbd4d	-0.050048828
97	0x3de8	0.11328125
98	0xbda8	-0.08203125
99	0xbdd8	-0.10546875
100	0xbda2	-0.07910156
101	0xbdfb	-0.122558594
102	0xbcb4	-0.021972656
103	0xbd92	-0.07128906
104	0x3e01	0.12597656
105	0x3c5c	0.013427734
106	0x3d5b	0.053466797
107	0xbd79	-0.060791016
108	0x3d6b	0.057373047
109	0x3d8d	0.068847656
110	0xbda7	-0.08154297
111	0xbdf5	-0.119628906
112	0x3d2d	0.042236328
113	0x3dec	0.115234375
114	0x3c2f	0.010681152
115	0x3ccd	0.025024414
116	0x3df7	0.12060547
117	0x3dad	0.084472656
118	0x3e08	0.1328125
119	0xbd11	-0.03540039
120	0xbd97	-0.07373047
121	0x3d4b	0.049560547
122	0xbd7f	-0.06225586
123	0xbd93	-0.071777344
124	0x3d91	0.07080078
125	0x3c1d	0.0095825195
126	0xbd56	-0.052246094
127	0xbda0	-0.078125
128	0xbd87	-0.06591797
129	0x3b9e	0.0048217773
130	0xbd02	-0.03173828
131	0xbd8f	-0.06982422
132	0x3d61	0.05493164
133	0x3c4b	0.012390137
134	0xbb97	-0.0046081543
135	0x3dca	0.09863281
136	0x3daf	0.08544922
137	0x3d81	0.06298828
138	0x3d86	0.06542969
139	0x3df7	0.12060547
140	0x3db2	0.08691406
141	0x3e19	0.14941406
142	0x3d80	0.0625
143	0xbdf1	-0.11767578
144	0x3d06	0.032714844
145	0xbe35	-0.17675781
146	0x3d3a	0.045410156
147	0x3dd9	0.10595703
148	0x3d94	0.072265625
149	0x3d38	0.044921875
150	0xbdec	-0.115234375
151	0xbde8	-0.11328125
152	0x3d59	0.052978516
153	0x3e0b	0.13574219
154	0xbbf8	-0.0075683594
155	0x3d42	0.04736328
156	0x3d7d	0.061767578
157	0x3e23	0.15917969
158	0xbdae	-0.08496094
159	0xbd22	-0.03955078
160	0x3d20	0.0390625
161	0x3d52	0.05126953
162	0xbc2a	-0.010375977
163	0xbdff	-0.12451172
164	0xbbbd	-0.0057678223
165	0xbde1	-0.10986328
166	0x3d47	0.048583984
167	0xbd85	-0.064941406
168	0x3d6c	0.057617188
169	0xbbb1	-0.0054016113
170	0x3c18	0.009277344
171	0xbd48	-0.048828125
172	0x3bfc	0.0076904297
173	0x3dcd	0.100097656
174	0x3c93	0.017944336
175	0xbd91	-0.07080078
176	0xbe07	-0.13183594
177	0xbe00	-0.125
178	0xbd0f	-0.03491211
179	0xbe21	-0.15722656
180	0xbe04	-0.12890625
181	0xbd03	-0.031982422
182	0x3d80	0.0625
183	0x3df8	0.12109375
184	0xbe11	-0.14160156
185	0xbd7f	-0.06225586
186	0x3dc5	0.096191406
187	0xbc8f	-0.017456055
188	0x3d37	0.044677734
189	0x3d3f	0.04663086
190	0x3d7b	0.061279297
191	0xbdf5	-0.119628906
192	0xbd08	-0.033203125
193	0x3cec	0.028808594
194	0xbca5	-0.020141602
195	0x3c84	0.016113281
196	0xbcb3	-0.021850586
197	0xbc41	-0.011779785
198	0x3b14	0.0022583008
199	0x3c11	0.008850098
200	0x3b90	0.0043945312
201	0x3c50	0.0126953125
202	0xbc02	-0.00793457
203	0xbbd6	-0.0065307617
204	0xbc81	-0.01574707
205	0xbc82	-0.01586914
206	0x3c9b	0.018920898
207	0x3cdd	0.026977539
208	0xbc67	-0.014099121
209	0x3bb8	0.0056152344
210	0x3d25	0.040283203
211	0x3cce	0.025146484
212	0xbb23	-0.0024871826
213	0x3a93	0.001121521
214	0xbc9c	-0.019042969
215	0x3c8d	0.017211914
216	0x3c89	0.016723633
217	0xbd1c	-0.038085938
218	0x3ca1	0.01965332
219	0x3d01	0.03149414
220	0x3b07	0.0020599365
221	0x3d09	0.033447266
222	0x3c99	0.018676758
223	0x3ca8	0.020507812
224	0xbcb3	-0.021850586
225	0x39ee	0.00045394897
226	0xbc38	-0.011230469
227	0x3c6e	0.014526367
228	0x3c99	0.018676758
229	0xbc7a	-0.015258789
230	0xbafa	-0.0019073486
231	0x3c89	0.016723633
232	0xbd14	-0.036132812
233	0xbc5a	-0.013305664
234	0x3c07	0.008239746
235	0xbc91	-0.017700195
236	0x3ca6	0.020263672
237	0xbaed	-0.0018081665
238	0x3b97	0.0046081543
239	0x3c91	0.017700195
240	0xbd2c	-0.041992188
241	0xbc0d	-0.008605957
242	0xbca6	-0.020263672
243	0xbabc	-0.0014343262
244	0xbd4f	-0.05053711
245	0x3c77	0.015075684
246	0x3b8a	0.004211426
247	0xbd11	-0.03540039
248	0x3b16	0.0022888184
249	0x3bd1	0.006378174
250	0xbc27	-0.010192871
251	0xbadd	-0.0016860962
252	0x3ca0	0.01953125
253	0xbbbc	-0.0057373047
254	0x3bb1	0.0054016113
255	0xbbde	-0.0067749023
